2023-07-27 16:01:49,846	root	INFO	Using cuda:0 device
2023-07-27 16:01:49,868	root	INFO	Start training with CNNLSTM model
2023-07-27 16:01:49,869	root	INFO	CNNLSTM(
  (conv1): Conv1d(32, 64, kernel_size=(3,), stride=(1,))
  (conv2): Conv1d(64, 64, kernel_size=(3,), stride=(1,))
  (pool): MaxPool1d(kernel_size=2, stride=2, padding=0, dilation=1, ceil_mode=False)
  (conv3): Conv1d(64, 32, kernel_size=(3,), stride=(1,))
  (conv4): Conv1d(32, 32, kernel_size=(3,), stride=(1,))
  (lstm1): LSTM(32, 32, batch_first=True)
  (lstm2): LSTM(32, 16, batch_first=True)
  (attention): Attention(
    (attention_weights): Linear(in_features=16, out_features=1, bias=True)
    (softmax): Softmax(dim=1)
  )
  (fc1): Linear(in_features=16, out_features=8, bias=True)
  (fc2): Linear(in_features=8, out_features=2, bias=True)
  (global_pooling): AdaptiveMaxPool1d(output_size=1)
  (softmax): Softmax(dim=1)
  (dropout): Dropout(p=0.5, inplace=False)
)
2023-07-27 16:01:49,869	root	INFO	====> Epoch: 1
2023-07-27 16:01:50,849	root	INFO	loss: 0.711220  accuracy: 46.000000 [   50/66045]
2023-07-27 16:01:53,324	root	INFO	loss: 0.702515  accuracy: 48.318408 [10050/66045]
2023-07-27 16:01:55,621	root	INFO	loss: 0.697760  accuracy: 49.765586 [20050/66045]
…
2023-07-27 16:29:01,017	root	INFO	Train  Loss: 0.077073 accuracy: 96.702498% 
2023-07-27 16:29:02,028	root	INFO	Val loss: 0.131594 Val accuracy: 94.580311%
2023-07-27 16:29:02,029	root	INFO	====> Epoch: 98
2023-07-27 16:29:02,060	root	INFO	loss: 0.035713  accuracy: 100.000000 [   50/66045]
2023-07-27 16:29:04,476	root	INFO	loss: 0.073895  accuracy: 96.925373 [10050/66045]
2023-07-27 16:29:06,706	root	INFO	loss: 0.076557  accuracy: 96.798005 [20050/66045]
2023-07-31 11:47:00,152	root	INFO	Using cuda:0 device
2023-07-31 11:47:00,163	root	INFO	Start training with CNNLSTM model
2023-07-31 11:47:00,163	root	INFO	CNNLSTM(
  (conv1): Conv1d(32, 32, kernel_size=(3,), stride=(1,))
  (conv2): Conv1d(32, 32, kernel_size=(3,), stride=(1,))
  (pool): MaxPool1d(kernel_size=2, stride=2, padding=0, dilation=1, ceil_mode=False)
  (conv3): Conv1d(32, 16, kernel_size=(3,), stride=(1,))
  (conv4): Conv1d(16, 16, kernel_size=(3,), stride=(1,))
  (lstm1): LSTM(16, 8, batch_first=True)
  (attention): Attention(
    (attention_weights): Linear(in_features=8, out_features=1, bias=True)
    (softmax): Softmax(dim=1)
  )
  (fc1): Linear(in_features=8, out_features=4, bias=True)
  (fc2): Linear(in_features=4, out_features=2, bias=True)
  (global_pooling): AdaptiveMaxPool1d(output_size=1)
  (softmax): Softmax(dim=1)
  (dropout): Dropout(p=0.5, inplace=False)
)
2023-07-31 11:47:00,163	root	INFO	====> Epoch: 1
2023-07-31 12:11:39,601	root	INFO	Using cuda:0 device
2023-07-31 12:11:39,621	root	INFO	Start training with LCNN model
2023-07-31 12:11:39,621	root	INFO	LCNN(
  (conv1): Sequential(
    (0): Conv2d(1, 32, kernel_size=(3, 3), stride=(1, 1))
    (1): ReLU()
    (2): MaxPool2d(kernel_size=2, stride=2, padding=0, dilation=1, ceil_mode=False)
  )
  (conv2): Sequential(
    (0): Conv2d(32, 16, kernel_size=(3, 3), stride=(1, 1))
    (1): ReLU()
    (2): MaxPool2d(kernel_size=2, stride=2, padding=0, dilation=1, ceil_mode=False)
  )
  (conv3): Sequential(
    (0): Conv2d(16, 8, kernel_size=(3, 3), stride=(1, 1))
    (1): ReLU()
    (2): MaxPool2d(kernel_size=2, stride=2, padding=0, dilation=1, ceil_mode=False)
    (3): Dropout(p=0.25, inplace=False)
    (4): Flatten(start_dim=1, end_dim=-1)
    (5): Linear(in_features=640, out_features=32, bias=True)
    (6): ReLU()
  )
  (output): Sequential(
    (0): Linear(in_features=8, out_features=2, bias=True)
  )
)
2023-07-31 12:11:39,621	root	INFO	====> Epoch: 1
2023-07-31 12:26:05,577	root	INFO	Using cuda:0 device
2023-07-31 12:26:05,594	root	INFO	Start training with LCNN model
2023-07-31 12:26:05,594	root	INFO	LCNN(
  (conv1): Sequential(
    (0): Conv2d(1, 32, kernel_size=(3, 3), stride=(1, 1))
    (1): ReLU()
    (2): MaxPool2d(kernel_size=2, stride=2, padding=0, dilation=1, ceil_mode=False)
  )
  (conv2): Sequential(
    (0): Conv2d(32, 16, kernel_size=(3, 3), stride=(1, 1))
    (1): ReLU()
    (2): MaxPool2d(kernel_size=2, stride=2, padding=0, dilation=1, ceil_mode=False)
  )
  (conv3): Sequential(
    (0): Conv2d(16, 8, kernel_size=(3, 3), stride=(1, 1))
    (1): ReLU()
    (2): MaxPool2d(kernel_size=2, stride=2, padding=0, dilation=1, ceil_mode=False)
    (3): Dropout(p=0.25, inplace=False)
    (4): Flatten(start_dim=1, end_dim=-1)
    (5): Linear(in_features=640, out_features=32, bias=True)
    (6): ReLU()
  )
  (output): Sequential(
    (0): Linear(in_features=8, out_features=2, bias=True)
  )
)
2023-07-31 12:26:05,595	root	INFO	====> Epoch: 1
2023-07-31 12:31:30,925	root	INFO	Using cuda:0 device
2023-07-31 12:31:30,944	root	INFO	Start training with LCNN model
2023-07-31 12:31:30,944	root	INFO	LCNN(
  (conv1): Sequential(
    (0): Conv2d(1, 32, kernel_size=(3, 3), stride=(1, 1))
    (1): ReLU()
    (2): MaxPool2d(kernel_size=2, stride=2, padding=0, dilation=1, ceil_mode=False)
  )
  (conv2): Sequential(
    (0): Conv2d(32, 16, kernel_size=(3, 3), stride=(1, 1))
    (1): ReLU()
    (2): MaxPool2d(kernel_size=2, stride=2, padding=0, dilation=1, ceil_mode=False)
  )
  (conv3): Sequential(
    (0): Conv2d(16, 8, kernel_size=(3, 3), stride=(1, 1))
    (1): ReLU()
    (2): MaxPool2d(kernel_size=2, stride=2, padding=0, dilation=1, ceil_mode=False)
    (3): Dropout(p=0.25, inplace=False)
    (4): Flatten(start_dim=1, end_dim=-1)
  )
  (linear): Sequential(
    (0): Linear(in_features=640, out_features=32, bias=True)
    (1): ReLU()
  )
  (output): Sequential(
    (0): Linear(in_features=8, out_features=2, bias=True)
  )
)
2023-07-31 12:31:30,944	root	INFO	====> Epoch: 1
2023-07-31 12:46:25,350	root	INFO	Using cuda:0 device
2023-07-31 12:46:25,363	root	INFO	Start training with LCNN model
2023-07-31 12:46:25,363	root	INFO	LCNN(
  (conv1): Sequential(
    (0): Conv2d(1, 32, kernel_size=(3, 3), stride=(1, 1))
    (1): ReLU()
    (2): MaxPool2d(kernel_size=2, stride=2, padding=0, dilation=1, ceil_mode=False)
  )
  (conv2): Sequential(
    (0): Conv2d(32, 16, kernel_size=(3, 3), stride=(1, 1))
    (1): ReLU()
    (2): MaxPool2d(kernel_size=2, stride=2, padding=0, dilation=1, ceil_mode=False)
  )
  (conv3): Sequential(
    (0): Conv2d(16, 8, kernel_size=(3, 3), stride=(1, 1))
    (1): ReLU()
    (2): MaxPool2d(kernel_size=2, stride=2, padding=0, dilation=1, ceil_mode=False)
    (3): Dropout(p=0.25, inplace=False)
    (4): Flatten(start_dim=1, end_dim=-1)
    (5): Linear(in_features=560, out_features=8, bias=True)
    (6): ReLU()
  )
  (output): Sequential(
    (0): Linear(in_features=8, out_features=2, bias=True)
  )
)
2023-07-31 12:46:25,364	root	INFO	====> Epoch: 1
2023-07-31 14:01:32,910	root	INFO	Using cuda:0 device
2023-07-31 14:01:32,926	root	INFO	Start training with LCNN model
2023-07-31 14:01:32,926	root	INFO	LCNN(
  (conv1): Sequential(
    (0): Conv2d(1, 32, kernel_size=(3, 3), stride=(1, 1))
    (1): ReLU()
    (2): MaxPool2d(kernel_size=2, stride=2, padding=0, dilation=1, ceil_mode=False)
  )
  (conv2): Sequential(
    (0): Conv2d(32, 16, kernel_size=(3, 3), stride=(1, 1))
    (1): ReLU()
    (2): MaxPool2d(kernel_size=2, stride=2, padding=0, dilation=1, ceil_mode=False)
  )
  (conv3): Sequential(
    (0): Conv2d(16, 8, kernel_size=(3, 3), stride=(1, 1))
    (1): ReLU()
    (2): MaxPool2d(kernel_size=2, stride=2, padding=0, dilation=1, ceil_mode=False)
    (3): Dropout(p=0.25, inplace=False)
    (4): Flatten(start_dim=1, end_dim=-1)
    (5): Linear(in_features=560, out_features=8, bias=True)
    (6): ReLU()
  )
  (output): Sequential(
    (0): Linear(in_features=8, out_features=2, bias=True)
  )
)
2023-07-31 14:01:32,926	root	INFO	====> Epoch: 1
2023-07-31 14:03:37,697	root	INFO	Using cuda:0 device
2023-07-31 14:03:37,697	root	INFO	Start training with LCNN model
2023-07-31 14:03:37,697	root	INFO	LCNN(
  (conv1): Sequential(
    (0): Conv2d(1, 32, kernel_size=(3, 3), stride=(1, 1))
    (1): ReLU()
    (2): MaxPool2d(kernel_size=2, stride=2, padding=0, dilation=1, ceil_mode=False)
  )
  (conv2): Sequential(
    (0): Conv2d(32, 16, kernel_size=(3, 3), stride=(1, 1))
    (1): ReLU()
    (2): MaxPool2d(kernel_size=2, stride=2, padding=0, dilation=1, ceil_mode=False)
  )
  (conv3): Sequential(
    (0): Conv2d(16, 8, kernel_size=(3, 3), stride=(1, 1))
    (1): ReLU()
    (2): MaxPool2d(kernel_size=2, stride=2, padding=0, dilation=1, ceil_mode=False)
    (3): Dropout(p=0.25, inplace=False)
    (4): Flatten(start_dim=1, end_dim=-1)
    (5): Linear(in_features=560, out_features=8, bias=True)
    (6): ReLU()
  )
  (output): Sequential(
    (0): Linear(in_features=8, out_features=2, bias=True)
  )
)
2023-07-31 14:03:37,698	root	INFO	====> Epoch: 1
2023-07-31 14:04:32,050	root	INFO	Using cuda:0 device
2023-07-31 14:04:32,051	root	INFO	Start training with LCNN model
2023-07-31 14:04:32,051	root	INFO	LCNN(
  (conv1): Sequential(
    (0): Conv2d(1, 32, kernel_size=(3, 3), stride=(1, 1))
    (1): ReLU()
    (2): MaxPool2d(kernel_size=2, stride=2, padding=0, dilation=1, ceil_mode=False)
  )
  (conv2): Sequential(
    (0): Conv2d(32, 16, kernel_size=(3, 3), stride=(1, 1))
    (1): ReLU()
    (2): MaxPool2d(kernel_size=2, stride=2, padding=0, dilation=1, ceil_mode=False)
  )
  (conv3): Sequential(
    (0): Conv2d(16, 8, kernel_size=(3, 3), stride=(1, 1))
    (1): ReLU()
    (2): MaxPool2d(kernel_size=2, stride=2, padding=0, dilation=1, ceil_mode=False)
    (3): Dropout(p=0.25, inplace=False)
    (4): Flatten(start_dim=1, end_dim=-1)
    (5): Linear(in_features=560, out_features=8, bias=True)
    (6): ReLU()
  )
  (output): Sequential(
    (0): Linear(in_features=8, out_features=2, bias=True)
  )
)
2023-07-31 14:04:32,051	root	INFO	====> Epoch: 1
2023-07-31 14:11:21,023	root	INFO	Using cuda:0 device
2023-07-31 14:11:21,037	root	INFO	Start training with LCNN model
2023-07-31 14:11:21,037	root	INFO	LCNN(
  (conv1): Sequential(
    (0): Conv2d(1, 128, kernel_size=(3, 3), stride=(1, 1), padding=(3, 3))
    (1): ReLU()
    (2): MaxPool2d(kernel_size=2, stride=2, padding=0, dilation=1, ceil_mode=False)
  )
  (conv2): Sequential(
    (0): Conv2d(128, 64, kernel_size=(3, 3), stride=(1, 1), padding=(3, 3))
    (1): ReLU()
    (2): MaxPool2d(kernel_size=2, stride=2, padding=0, dilation=1, ceil_mode=False)
  )
  (conv3): Sequential(
    (0): Conv2d(64, 64, kernel_size=(3, 3), stride=(1, 1))
    (1): ReLU()
    (2): MaxPool2d(kernel_size=2, stride=2, padding=0, dilation=1, ceil_mode=False)
    (3): Dropout(p=0.25, inplace=False)
    (4): Flatten(start_dim=1, end_dim=-1)
    (5): Linear(in_features=640, out_features=32, bias=True)
    (6): ReLU()
  )
  (output): Sequential(
    (0): Linear(in_features=32, out_features=2, bias=True)
  )
)
2023-07-31 14:11:21,037	root	INFO	====> Epoch: 1
2023-07-31 14:16:49,887	root	INFO	Using cuda:0 device
2023-07-31 14:16:49,902	root	INFO	Start training with LCNN model
2023-07-31 14:16:49,902	root	INFO	LCNN(
  (conv1): Sequential(
    (0): Conv2d(1, 128, kernel_size=(3, 3), stride=(1, 1), padding=(3, 3))
    (1): ReLU()
    (2): MaxPool2d(kernel_size=2, stride=2, padding=0, dilation=1, ceil_mode=False)
  )
  (conv2): Sequential(
    (0): Conv2d(128, 64, kernel_size=(3, 3), stride=(1, 1), padding=(3, 3))
    (1): ReLU()
    (2): MaxPool2d(kernel_size=2, stride=2, padding=0, dilation=1, ceil_mode=False)
  )
  (conv3): Sequential(
    (0): Conv2d(64, 64, kernel_size=(3, 3), stride=(1, 1))
    (1): ReLU()
    (2): MaxPool2d(kernel_size=2, stride=2, padding=0, dilation=1, ceil_mode=False)
    (3): Dropout(p=0.25, inplace=False)
    (4): Flatten(start_dim=1, end_dim=-1)
  )
  (lin): Sequential(
    (0): Linear(in_features=640, out_features=32, bias=True)
    (1): ReLU()
  )
  (output): Sequential(
    (0): Linear(in_features=32, out_features=2, bias=True)
  )
)
2023-07-31 14:16:49,903	root	INFO	====> Epoch: 1
2023-07-31 14:19:41,404	root	INFO	Using cuda:0 device
2023-07-31 14:19:41,404	root	INFO	Start training with LCNN model
2023-07-31 14:19:41,404	root	INFO	LCNN(
  (conv1): Sequential(
    (0): Conv2d(1, 128, kernel_size=(3, 3), stride=(1, 1), padding=(3, 3))
    (1): ReLU()
    (2): MaxPool2d(kernel_size=2, stride=2, padding=0, dilation=1, ceil_mode=False)
  )
  (conv2): Sequential(
    (0): Conv2d(128, 64, kernel_size=(3, 3), stride=(1, 1), padding=(3, 3))
    (1): ReLU()
    (2): MaxPool2d(kernel_size=2, stride=2, padding=0, dilation=1, ceil_mode=False)
  )
  (conv3): Sequential(
    (0): Conv2d(64, 64, kernel_size=(3, 3), stride=(1, 1))
    (1): ReLU()
    (2): MaxPool2d(kernel_size=2, stride=2, padding=0, dilation=1, ceil_mode=False)
    (3): Dropout(p=0.25, inplace=False)
    (4): Flatten(start_dim=1, end_dim=-1)
  )
  (lin): Sequential(
    (0): Linear(in_features=9728, out_features=32, bias=True)
    (1): ReLU()
  )
  (output): Sequential(
    (0): Linear(in_features=32, out_features=2, bias=True)
  )
)
2023-07-31 14:19:41,405	root	INFO	====> Epoch: 1
2023-07-31 14:24:37,396	root	INFO	Using cuda:0 device
2023-07-31 14:24:37,412	root	INFO	Start training with LCNN model
2023-07-31 14:24:37,412	root	INFO	LCNN(
  (conv1): Sequential(
    (0): Conv2d(1, 128, kernel_size=(3, 3), stride=(1, 1), padding=(3, 3))
    (1): ReLU()
    (2): MaxPool2d(kernel_size=2, stride=2, padding=0, dilation=1, ceil_mode=False)
  )
  (conv2): Sequential(
    (0): Conv2d(128, 64, kernel_size=(3, 3), stride=(1, 1), padding=(3, 3))
    (1): ReLU()
    (2): MaxPool2d(kernel_size=2, stride=2, padding=0, dilation=1, ceil_mode=False)
  )
  (conv3): Sequential(
    (0): Conv2d(64, 64, kernel_size=(3, 3), stride=(1, 1))
    (1): ReLU()
    (2): MaxPool2d(kernel_size=2, stride=2, padding=0, dilation=1, ceil_mode=False)
    (3): Dropout(p=0.25, inplace=False)
    (4): Flatten(start_dim=1, end_dim=-1)
  )
  (lin): Sequential(
    (0): Linear(in_features=9728, out_features=32, bias=True)
    (1): ReLU()
  )
  (output): Sequential(
    (0): Linear(in_features=32, out_features=2, bias=True)
  )
)
2023-07-31 14:24:37,413	root	INFO	====> Epoch: 1
2023-07-31 14:28:05,472	root	INFO	Using cuda:0 device
2023-07-31 14:28:05,489	root	INFO	Start training with LCNN model
2023-07-31 14:28:05,489	root	INFO	LCNN(
  (conv1): Sequential(
    (0): Conv2d(1, 128, kernel_size=(3, 3), stride=(1, 1), padding=(3, 3))
    (1): ReLU()
    (2): MaxPool2d(kernel_size=2, stride=2, padding=0, dilation=1, ceil_mode=False)
  )
  (conv2): Sequential(
    (0): Conv2d(128, 64, kernel_size=(3, 3), stride=(1, 1), padding=(3, 3))
    (1): ReLU()
    (2): MaxPool2d(kernel_size=2, stride=2, padding=0, dilation=1, ceil_mode=False)
  )
  (conv3): Sequential(
    (0): Conv2d(64, 64, kernel_size=(3, 3), stride=(1, 1))
    (1): ReLU()
    (2): MaxPool2d(kernel_size=2, stride=2, padding=0, dilation=1, ceil_mode=False)
    (3): Dropout(p=0.25, inplace=False)
    (4): Flatten(start_dim=1, end_dim=-1)
    (5): Linear(in_features=640, out_features=32, bias=True)
    (6): ReLU()
  )
  (output): Sequential(
    (0): Linear(in_features=32, out_features=2, bias=True)
  )
)
2023-07-31 14:28:05,489	root	INFO	====> Epoch: 1
2023-07-31 14:31:36,281	root	INFO	Using cuda:0 device
2023-07-31 14:31:36,296	root	INFO	Start training with LCNN model
2023-07-31 14:31:36,296	root	INFO	LCNN(
  (conv1): Sequential(
    (0): Conv2d(1, 32, kernel_size=(3, 3), stride=(1, 1))
    (1): ReLU()
    (2): MaxPool2d(kernel_size=2, stride=2, padding=0, dilation=1, ceil_mode=False)
  )
  (conv2): Sequential(
    (0): Conv2d(32, 16, kernel_size=(3, 3), stride=(1, 1))
    (1): ReLU()
    (2): MaxPool2d(kernel_size=2, stride=2, padding=0, dilation=1, ceil_mode=False)
  )
  (conv3): Sequential(
    (0): Conv2d(16, 8, kernel_size=(3, 3), stride=(1, 1))
    (1): ReLU()
    (2): MaxPool2d(kernel_size=2, stride=2, padding=0, dilation=1, ceil_mode=False)
    (3): Dropout(p=0.25, inplace=False)
    (4): Flatten(start_dim=1, end_dim=-1)
  )
  (lin): Sequential(
    (0): Linear(in_features=560, out_features=8, bias=True)
    (1): ReLU()
  )
  (output): Sequential(
    (0): Linear(in_features=8, out_features=2, bias=True)
  )
)
2023-07-31 14:31:36,297	root	INFO	====> Epoch: 1
2023-07-31 14:32:15,792	root	INFO	Using cuda:0 device
2023-07-31 14:32:15,792	root	INFO	Start training with LCNN model
2023-07-31 14:32:15,792	root	INFO	LCNN(
  (conv1): Sequential(
    (0): Conv2d(1, 32, kernel_size=(3, 3), stride=(1, 1))
    (1): ReLU()
    (2): MaxPool2d(kernel_size=2, stride=2, padding=0, dilation=1, ceil_mode=False)
  )
  (conv2): Sequential(
    (0): Conv2d(32, 16, kernel_size=(3, 3), stride=(1, 1))
    (1): ReLU()
    (2): MaxPool2d(kernel_size=2, stride=2, padding=0, dilation=1, ceil_mode=False)
  )
  (conv3): Sequential(
    (0): Conv2d(16, 8, kernel_size=(3, 3), stride=(1, 1))
    (1): ReLU()
    (2): MaxPool2d(kernel_size=2, stride=2, padding=0, dilation=1, ceil_mode=False)
    (3): Dropout(p=0.25, inplace=False)
    (4): Flatten(start_dim=1, end_dim=-1)
  )
  (lin): Sequential(
    (0): Linear(in_features=560, out_features=8, bias=True)
    (1): ReLU()
  )
  (output): Sequential(
    (0): Linear(in_features=8, out_features=2, bias=True)
  )
)
2023-07-31 14:32:15,793	root	INFO	====> Epoch: 1
2023-07-31 14:37:21,904	root	INFO	Using cuda:0 device
2023-07-31 14:37:22,013	root	INFO	Start training with CNNLSTM model
2023-07-31 14:37:22,013	root	INFO	CNNLSTM(
  (conv1): Conv1d(32, 32, kernel_size=(3,), stride=(1,))
  (conv2): Conv1d(32, 32, kernel_size=(3,), stride=(1,))
  (pool): MaxPool1d(kernel_size=2, stride=2, padding=0, dilation=1, ceil_mode=False)
  (conv3): Conv1d(32, 16, kernel_size=(3,), stride=(1,))
  (conv4): Conv1d(16, 16, kernel_size=(3,), stride=(1,))
  (lstm1): LSTM(16, 8, batch_first=True)
  (attention): Attention(
    (attention_weights): Linear(in_features=8, out_features=1, bias=True)
    (softmax): Softmax(dim=1)
  )
  (fc1): Linear(in_features=8, out_features=4, bias=True)
  (fc2): Linear(in_features=4, out_features=2, bias=True)
  (global_pooling): AdaptiveMaxPool1d(output_size=1)
  (softmax): Softmax(dim=1)
  (dropout): Dropout(p=0.5, inplace=False)
)
2023-07-31 14:37:22,014	root	INFO	====> Epoch: 1
2023-07-31 14:37:39,258	root	INFO	loss: 0.637930  accuracy: 70.000000 [   50/18400]
2023-07-31 14:37:41,116	root	INFO	loss: 0.664711  accuracy: 62.278607 [10050/18400]
2023-07-31 14:37:42,560	root	INFO	Train  Loss: 0.664819 accuracy: 61.956522% 
…
2023-07-31 14:39:17,471	root	INFO	Train  Loss: 0.396414 accuracy: 87.581522% 
2023-07-31 14:39:18,049	root	INFO	Val loss: 0.512120 Val accuracy: 78.010336%
2023-07-31 14:39:33,641	root	INFO	loss: 0.311865  accuracy: 94.000000 [   50/16800]
2023-07-31 14:39:35,358	root	INFO	loss: 0.301397  accuracy: 92.736318 [10050/16800]
2023-07-31 14:39:36,669	root	INFO	Train  Loss: 0.291966 accuracy: 92.845238% 
2023-07-31 14:39:37,166	root	INFO	Val loss: 0.528609 Val accuracy: 77.434109%
2023-07-31 14:40:50,189	root	INFO	Using cuda:0 device
2023-07-31 14:40:50,205	root	INFO	Start training with CNNLSTM model
2023-07-31 14:40:50,205	root	INFO	CNNLSTM(
  (conv1): Conv1d(32, 32, kernel_size=(3,), stride=(1,))
  (conv2): Conv1d(32, 32, kernel_size=(3,), stride=(1,))
  (pool): MaxPool1d(kernel_size=2, stride=2, padding=0, dilation=1, ceil_mode=False)
  (conv3): Conv1d(32, 16, kernel_size=(3,), stride=(1,))
  (conv4): Conv1d(16, 16, kernel_size=(3,), stride=(1,))
  (lstm1): LSTM(16, 8, batch_first=True)
  (attention): Attention(
    (attention_weights): Linear(in_features=8, out_features=1, bias=True)
    (softmax): Softmax(dim=1)
  )
  (fc1): Linear(in_features=8, out_features=4, bias=True)
  (fc2): Linear(in_features=4, out_features=2, bias=True)
  (global_pooling): AdaptiveMaxPool1d(output_size=1)
  (softmax): Softmax(dim=1)
  (dropout): Dropout(p=0.5, inplace=False)
)
2023-07-31 14:40:50,206	root	INFO	====> Epoch: 1
2023-07-31 14:41:06,176	root	INFO	loss: 0.675143  accuracy: 60.000000 [   50/15200]
2023-07-31 14:41:08,369	root	INFO	loss: 0.722382  accuracy: 48.348259 [10050/15200]
2023-07-31 14:41:09,348	root	INFO	Train  Loss: 0.713339 accuracy: 48.684211% 
2023-07-31 14:47:35,990	root	INFO	Using cuda:0 device
2023-07-31 14:47:36,000	root	INFO	Start training with CNNLSTM model
2023-07-31 14:47:36,000	root	INFO	CNNLSTM(
  (conv1): Conv1d(32, 32, kernel_size=(3,), stride=(1,))
  (conv2): Conv1d(32, 32, kernel_size=(3,), stride=(1,))
  (pool): MaxPool1d(kernel_size=2, stride=2, padding=0, dilation=1, ceil_mode=False)
  (conv3): Conv1d(32, 16, kernel_size=(3,), stride=(1,))
  (conv4): Conv1d(16, 16, kernel_size=(3,), stride=(1,))
  (lstm1): LSTM(16, 8, batch_first=True)
  (attention): Attention(
    (attention_weights): Linear(in_features=8, out_features=1, bias=True)
    (softmax): Softmax(dim=1)
  )
  (fc1): Linear(in_features=8, out_features=4, bias=True)
  (fc2): Linear(in_features=4, out_features=2, bias=True)
  (global_pooling): AdaptiveMaxPool1d(output_size=1)
  (softmax): Softmax(dim=1)
  (dropout): Dropout(p=0.5, inplace=False)
)
2023-07-31 14:47:36,000	root	INFO	====> Epoch: 1
2023-07-31 14:48:27,431	root	INFO	Using cuda:0 device
2023-07-31 14:48:27,432	root	INFO	Start training with LCNN model
2023-07-31 14:48:27,432	root	INFO	LCNN(
  (conv1): Sequential(
    (0): Conv2d(1, 32, kernel_size=(3, 3), stride=(1, 1))
    (1): ReLU()
    (2): MaxPool2d(kernel_size=2, stride=2, padding=0, dilation=1, ceil_mode=False)
  )
  (conv2): Sequential(
    (0): Conv2d(32, 16, kernel_size=(3, 3), stride=(1, 1))
    (1): ReLU()
    (2): MaxPool2d(kernel_size=2, stride=2, padding=0, dilation=1, ceil_mode=False)
  )
  (conv3): Sequential(
    (0): Conv2d(16, 8, kernel_size=(3, 3), stride=(1, 1))
    (1): ReLU()
    (2): MaxPool2d(kernel_size=2, stride=2, padding=0, dilation=1, ceil_mode=False)
    (3): Dropout(p=0.25, inplace=False)
    (4): Flatten(start_dim=1, end_dim=-1)
  )
  (lin): Sequential(
    (0): Linear(in_features=560, out_features=8, bias=True)
    (1): ReLU()
  )
  (output): Sequential(
    (0): Linear(in_features=8, out_features=2, bias=True)
  )
)
2023-07-31 14:48:27,432	root	INFO	====> Epoch: 1
2023-07-31 14:49:33,081	root	INFO	Using cuda:0 device
2023-07-31 14:49:33,082	root	INFO	Start training with LCNN model
2023-07-31 14:49:33,082	root	INFO	LCNN(
  (conv1): Sequential(
    (0): Conv2d(1, 32, kernel_size=(3, 3), stride=(1, 1))
    (1): ReLU()
    (2): MaxPool2d(kernel_size=2, stride=2, padding=0, dilation=1, ceil_mode=False)
  )
  (conv2): Sequential(
    (0): Conv2d(32, 16, kernel_size=(3, 3), stride=(1, 1))
    (1): ReLU()
    (2): MaxPool2d(kernel_size=2, stride=2, padding=0, dilation=1, ceil_mode=False)
  )
  (conv3): Sequential(
    (0): Conv2d(16, 8, kernel_size=(3, 3), stride=(1, 1))
    (1): ReLU()
    (2): MaxPool2d(kernel_size=2, stride=2, padding=0, dilation=1, ceil_mode=False)
    (3): Dropout(p=0.25, inplace=False)
    (4): Flatten(start_dim=1, end_dim=-1)
  )
  (lin): Sequential(
    (0): Linear(in_features=560, out_features=8, bias=True)
    (1): ReLU()
  )
  (output): Sequential(
    (0): Linear(in_features=8, out_features=2, bias=True)
  )
)
2023-07-31 14:49:33,082	root	INFO	====> Epoch: 1
2023-07-31 15:11:27,931	root	INFO	Using cuda:0 device
2023-07-31 15:11:27,948	root	INFO	Start training with LCNN model
2023-07-31 15:11:27,949	root	INFO	LCNN(
  (conv1): Sequential(
    (0): Conv2d(1, 32, kernel_size=(3, 3), stride=(1, 1))
    (1): ReLU()
    (2): MaxPool2d(kernel_size=2, stride=2, padding=0, dilation=1, ceil_mode=False)
  )
  (conv2): Sequential(
    (0): Conv2d(32, 16, kernel_size=(3, 3), stride=(1, 1))
    (1): ReLU()
    (2): MaxPool2d(kernel_size=2, stride=2, padding=0, dilation=1, ceil_mode=False)
  )
  (conv3): Sequential(
    (0): Conv2d(16, 8, kernel_size=(3, 3), stride=(1, 1))
    (1): ReLU()
    (2): MaxPool2d(kernel_size=2, stride=2, padding=0, dilation=1, ceil_mode=False)
    (3): Dropout(p=0.25, inplace=False)
    (4): Flatten(start_dim=1, end_dim=-1)
  )
  (lin): Sequential(
    (0): Linear(in_features=560, out_features=8, bias=True)
    (1): ReLU()
  )
  (output): Sequential(
    (0): Linear(in_features=8, out_features=2, bias=True)
  )
)
2023-07-31 15:11:27,949	root	INFO	====> Epoch: 1
2023-07-31 15:21:40,696	root	INFO	Using cuda:0 device
2023-07-31 15:21:40,716	root	INFO	Start training with LCNN model
2023-07-31 15:21:40,716	root	INFO	LCNN(
  (conv1): Sequential(
    (0): Conv2d(1, 32, kernel_size=(3, 3), stride=(1, 1))
    (1): ReLU()
    (2): MaxPool2d(kernel_size=2, stride=2, padding=0, dilation=1, ceil_mode=False)
  )
  (conv2): Sequential(
    (0): Conv2d(32, 16, kernel_size=(3, 3), stride=(1, 1))
    (1): ReLU()
    (2): MaxPool2d(kernel_size=2, stride=2, padding=0, dilation=1, ceil_mode=False)
  )
  (conv3): Sequential(
    (0): Conv2d(16, 8, kernel_size=(3, 3), stride=(1, 1))
    (1): ReLU()
    (2): MaxPool2d(kernel_size=2, stride=2, padding=0, dilation=1, ceil_mode=False)
    (3): Dropout(p=0.25, inplace=False)
    (4): Flatten(start_dim=1, end_dim=-1)
  )
  (lin): Sequential(
    (0): Linear(in_features=560, out_features=8, bias=True)
    (1): ReLU()
  )
  (output): Sequential(
    (0): Linear(in_features=8, out_features=2, bias=True)
  )
)
2023-07-31 15:21:40,717	root	INFO	====> Epoch: 1
2023-07-31 15:37:49,655	root	INFO	Using cuda:0 device
2023-07-31 15:37:49,669	root	INFO	Start training with LCNN model
2023-07-31 15:37:49,669	root	INFO	LCNN(
  (conv1): Sequential(
    (0): Conv2d(1, 32, kernel_size=(3, 3), stride=(1, 1))
    (1): ReLU()
    (2): MaxPool2d(kernel_size=2, stride=2, padding=0, dilation=1, ceil_mode=False)
  )
  (conv2): Sequential(
    (0): Conv2d(32, 16, kernel_size=(3, 3), stride=(1, 1))
    (1): ReLU()
    (2): MaxPool2d(kernel_size=2, stride=2, padding=0, dilation=1, ceil_mode=False)
  )
  (conv3): Sequential(
    (0): Conv2d(16, 8, kernel_size=(3, 3), stride=(1, 1))
    (1): ReLU()
    (2): MaxPool2d(kernel_size=2, stride=2, padding=0, dilation=1, ceil_mode=False)
    (3): Dropout(p=0.25, inplace=False)
    (4): Flatten(start_dim=1, end_dim=-1)
  )
  (lin): Sequential(
    (0): Linear(in_features=560, out_features=8, bias=True)
    (1): ReLU()
  )
  (output): Sequential(
    (0): Linear(in_features=8, out_features=2, bias=True)
  )
)
2023-07-31 15:37:49,669	root	INFO	====> Epoch: 1
2023-07-31 15:37:56,106	root	INFO	loss: 0.693340  accuracy: 46.000000 [   50/ 7855]
2023-07-31 15:37:58,380	root	INFO	Train  Loss: 0.655635 accuracy: 63.088608% 
2023-07-31 15:37:58,760	root	INFO	Val loss: 0.559098 Val accuracy: 77.700258%
2023-07-31 15:38:04,775	root	INFO	loss: 0.803380  accuracy: 36.000000 [   50/ 8529]
…
2023-07-31 15:39:21,149	root	INFO	loss: 0.412995  accuracy: 84.000000 [   50/ 8400]
2023-07-31 15:39:23,521	root	INFO	Train  Loss: 0.357509 accuracy: 86.773810% 
2023-07-31 15:39:23,906	root	INFO	Val loss: 0.253447 Val accuracy: 91.200689%
2023-07-31 15:39:29,514	root	INFO	loss: 0.696241  accuracy: 86.000000 [   50/ 7600]
2023-07-31 15:39:31,674	root	INFO	Train  Loss: 0.313786 accuracy: 87.684211% 
2023-07-31 15:39:32,063	root	INFO	Val loss: 0.257481 Val accuracy: 91.374677%
2023-07-31 16:29:07,500	root	INFO	Using cuda:0 device
2023-07-31 16:29:07,520	root	INFO	Start training with LCNN model
2023-07-31 16:29:07,520	root	INFO	LCNN(
  (conv1): Sequential(
    (0): Conv2d(1, 128, kernel_size=(3, 3), stride=(1, 1), padding=(3, 3))
    (1): ReLU()
    (2): MaxPool2d(kernel_size=2, stride=2, padding=0, dilation=1, ceil_mode=False)
  )
  (conv2): Sequential(
    (0): Conv2d(128, 64, kernel_size=(3, 3), stride=(1, 1), padding=(3, 3))
    (1): ReLU()
    (2): MaxPool2d(kernel_size=2, stride=2, padding=0, dilation=1, ceil_mode=False)
  )
  (conv3): Sequential(
    (0): Conv2d(64, 64, kernel_size=(3, 3), stride=(1, 1))
    (1): ReLU()
    (2): MaxPool2d(kernel_size=2, stride=2, padding=0, dilation=1, ceil_mode=False)
    (3): Dropout(p=0.25, inplace=False)
    (4): Flatten(start_dim=1, end_dim=-1)
    (5): Linear(in_features=640, out_features=32, bias=True)
    (6): ReLU()
  )
  (output): Sequential(
    (0): Linear(in_features=32, out_features=2, bias=True)
  )
)
2023-07-31 16:29:07,522	root	INFO	====> Epoch: 1
2023-07-31 16:36:11,726	root	INFO	Using cuda:0 device
2023-07-31 16:36:11,745	root	INFO	Start training with LCNN model
2023-07-31 16:36:11,745	root	INFO	LCNN(
  (conv1): Sequential(
    (0): Conv2d(1, 128, kernel_size=(3, 3), stride=(1, 1), padding=(3, 3))
    (1): ReLU()
    (2): MaxPool2d(kernel_size=2, stride=2, padding=0, dilation=1, ceil_mode=False)
  )
  (conv2): Sequential(
    (0): Conv2d(128, 64, kernel_size=(3, 3), stride=(1, 1), padding=(3, 3))
    (1): ReLU()
    (2): MaxPool2d(kernel_size=2, stride=2, padding=0, dilation=1, ceil_mode=False)
  )
  (conv3): Sequential(
    (0): Conv2d(64, 64, kernel_size=(3, 3), stride=(1, 1))
    (1): ReLU()
    (2): MaxPool2d(kernel_size=2, stride=2, padding=0, dilation=1, ceil_mode=False)
    (3): Dropout(p=0.25, inplace=False)
    (4): Flatten(start_dim=1, end_dim=-1)
    (5): Linear(in_features=640, out_features=32, bias=True)
    (6): ReLU()
  )
  (output): Sequential(
    (0): Linear(in_features=32, out_features=2, bias=True)
  )
)
2023-07-31 16:43:15,613	root	INFO	Using cuda:0 device
2023-07-31 16:43:15,632	root	INFO	Start training with LCNN model
2023-07-31 16:43:15,632	root	INFO	LCNN(
  (conv1): Sequential(
    (0): Conv2d(1, 128, kernel_size=(3, 3), stride=(1, 1), padding=(3, 3))
    (1): ReLU()
    (2): MaxPool2d(kernel_size=2, stride=2, padding=0, dilation=1, ceil_mode=False)
  )
  (conv2): Sequential(
    (0): Conv2d(128, 64, kernel_size=(3, 3), stride=(1, 1), padding=(3, 3))
    (1): ReLU()
    (2): MaxPool2d(kernel_size=2, stride=2, padding=0, dilation=1, ceil_mode=False)
  )
  (conv3): Sequential(
    (0): Conv2d(64, 64, kernel_size=(3, 3), stride=(1, 1))
    (1): ReLU()
    (2): MaxPool2d(kernel_size=2, stride=2, padding=0, dilation=1, ceil_mode=False)
    (3): Dropout(p=0.25, inplace=False)
    (4): Flatten(start_dim=1, end_dim=-1)
    (5): Linear(in_features=640, out_features=32, bias=True)
    (6): ReLU()
  )
  (output): Sequential(
    (0): Linear(in_features=32, out_features=2, bias=True)
  )
)
2023-07-31 16:43:44,130	root	INFO	Using cuda:0 device
2023-07-31 16:43:44,130	root	INFO	Start training with LCNN model
2023-07-31 16:43:44,130	root	INFO	LCNN(
  (conv1): Sequential(
    (0): Conv2d(1, 128, kernel_size=(3, 3), stride=(1, 1), padding=(3, 3))
    (1): ReLU()
    (2): MaxPool2d(kernel_size=2, stride=2, padding=0, dilation=1, ceil_mode=False)
  )
  (conv2): Sequential(
    (0): Conv2d(128, 64, kernel_size=(3, 3), stride=(1, 1), padding=(3, 3))
    (1): ReLU()
    (2): MaxPool2d(kernel_size=2, stride=2, padding=0, dilation=1, ceil_mode=False)
  )
  (conv3): Sequential(
    (0): Conv2d(64, 64, kernel_size=(3, 3), stride=(1, 1))
    (1): ReLU()
    (2): MaxPool2d(kernel_size=2, stride=2, padding=0, dilation=1, ceil_mode=False)
    (3): Dropout(p=0.25, inplace=False)
    (4): Flatten(start_dim=1, end_dim=-1)
    (5): Linear(in_features=640, out_features=32, bias=True)
    (6): ReLU()
  )
  (output): Sequential(
    (0): Linear(in_features=32, out_features=2, bias=True)
  )
)
2023-07-31 16:46:45,345	root	INFO	Using cuda:0 device
2023-07-31 16:46:45,364	root	INFO	Start training with LCNN model
2023-07-31 16:46:45,364	root	INFO	LCNN(
  (conv1): Sequential(
    (0): Conv2d(1, 128, kernel_size=(3, 3), stride=(1, 1), padding=(3, 3))
    (1): ReLU()
    (2): MaxPool2d(kernel_size=2, stride=2, padding=0, dilation=1, ceil_mode=False)
  )
  (conv2): Sequential(
    (0): Conv2d(128, 64, kernel_size=(3, 3), stride=(1, 1), padding=(3, 3))
    (1): ReLU()
    (2): MaxPool2d(kernel_size=2, stride=2, padding=0, dilation=1, ceil_mode=False)
  )
  (conv3): Sequential(
    (0): Conv2d(64, 64, kernel_size=(3, 3), stride=(1, 1))
    (1): ReLU()
    (2): MaxPool2d(kernel_size=2, stride=2, padding=0, dilation=1, ceil_mode=False)
    (3): Dropout(p=0.25, inplace=False)
    (4): Flatten(start_dim=1, end_dim=-1)
    (5): Linear(in_features=640, out_features=32, bias=True)
    (6): ReLU()
  )
  (output): Sequential(
    (0): Linear(in_features=32, out_features=2, bias=True)
  )
)
2023-07-31 16:48:38,037	root	INFO	Using cuda:0 device
2023-07-31 16:48:38,037	root	INFO	Start training with LCNN model
2023-07-31 16:48:38,037	root	INFO	LCNN(
  (conv1): Sequential(
    (0): Conv2d(1, 128, kernel_size=(3, 3), stride=(1, 1), padding=(3, 3))
    (1): ReLU()
    (2): MaxPool2d(kernel_size=2, stride=2, padding=0, dilation=1, ceil_mode=False)
  )
  (conv2): Sequential(
    (0): Conv2d(128, 64, kernel_size=(3, 3), stride=(1, 1), padding=(3, 3))
    (1): ReLU()
    (2): MaxPool2d(kernel_size=2, stride=2, padding=0, dilation=1, ceil_mode=False)
  )
  (conv3): Sequential(
    (0): Conv2d(64, 64, kernel_size=(3, 3), stride=(1, 1))
    (1): ReLU()
    (2): MaxPool2d(kernel_size=2, stride=2, padding=0, dilation=1, ceil_mode=False)
    (3): Dropout(p=0.25, inplace=False)
    (4): Flatten(start_dim=1, end_dim=-1)
    (5): Linear(in_features=640, out_features=32, bias=True)
    (6): ReLU()
  )
  (output): Sequential(
    (0): Linear(in_features=32, out_features=2, bias=True)
  )
)
2023-07-31 16:49:55,910	root	INFO	Using cuda:0 device
2023-07-31 16:49:55,911	root	INFO	Start training with LCNN model
2023-07-31 16:49:55,911	root	INFO	LCNN(
  (conv1): Sequential(
    (0): Conv2d(1, 128, kernel_size=(3, 3), stride=(1, 1), padding=(3, 3))
    (1): ReLU()
    (2): MaxPool2d(kernel_size=2, stride=2, padding=0, dilation=1, ceil_mode=False)
  )
  (conv2): Sequential(
    (0): Conv2d(128, 64, kernel_size=(3, 3), stride=(1, 1), padding=(3, 3))
    (1): ReLU()
    (2): MaxPool2d(kernel_size=2, stride=2, padding=0, dilation=1, ceil_mode=False)
  )
  (conv3): Sequential(
    (0): Conv2d(64, 64, kernel_size=(3, 3), stride=(1, 1))
    (1): ReLU()
    (2): MaxPool2d(kernel_size=2, stride=2, padding=0, dilation=1, ceil_mode=False)
    (3): Dropout(p=0.25, inplace=False)
    (4): Flatten(start_dim=1, end_dim=-1)
    (5): Linear(in_features=640, out_features=32, bias=True)
    (6): ReLU()
  )
  (output): Sequential(
    (0): Linear(in_features=32, out_features=2, bias=True)
  )
)
2023-07-31 16:56:35,612	root	INFO	Using cuda:0 device
2023-07-31 16:56:35,632	root	INFO	Start training with LCNN model
2023-07-31 16:56:35,632	root	INFO	LCNN(
  (conv1): Sequential(
    (0): Conv2d(1, 128, kernel_size=(3, 3), stride=(1, 1), padding=(3, 3))
    (1): ReLU()
    (2): MaxPool2d(kernel_size=2, stride=2, padding=0, dilation=1, ceil_mode=False)
  )
  (conv2): Sequential(
    (0): Conv2d(128, 64, kernel_size=(3, 3), stride=(1, 1), padding=(3, 3))
    (1): ReLU()
    (2): MaxPool2d(kernel_size=2, stride=2, padding=0, dilation=1, ceil_mode=False)
  )
  (conv3): Sequential(
    (0): Conv2d(64, 64, kernel_size=(3, 3), stride=(1, 1))
    (1): ReLU()
    (2): MaxPool2d(kernel_size=2, stride=2, padding=0, dilation=1, ceil_mode=False)
    (3): Dropout(p=0.25, inplace=False)
    (4): Flatten(start_dim=1, end_dim=-1)
    (5): Linear(in_features=640, out_features=32, bias=True)
    (6): ReLU()
  )
  (output): Sequential(
    (0): Linear(in_features=32, out_features=2, bias=True)
  )
)
2023-07-31 16:57:19,088	root	INFO	Using cuda:0 device
2023-07-31 16:57:19,089	root	INFO	Start training with LCNN model
2023-07-31 16:57:19,089	root	INFO	LCNN(
  (conv1): Sequential(
    (0): Conv2d(1, 128, kernel_size=(3, 3), stride=(1, 1), padding=(3, 3))
    (1): ReLU()
    (2): MaxPool2d(kernel_size=2, stride=2, padding=0, dilation=1, ceil_mode=False)
  )
  (conv2): Sequential(
    (0): Conv2d(128, 64, kernel_size=(3, 3), stride=(1, 1), padding=(3, 3))
    (1): ReLU()
    (2): MaxPool2d(kernel_size=2, stride=2, padding=0, dilation=1, ceil_mode=False)
  )
  (conv3): Sequential(
    (0): Conv2d(64, 64, kernel_size=(3, 3), stride=(1, 1))
    (1): ReLU()
    (2): MaxPool2d(kernel_size=2, stride=2, padding=0, dilation=1, ceil_mode=False)
    (3): Dropout(p=0.25, inplace=False)
    (4): Flatten(start_dim=1, end_dim=-1)
    (5): Linear(in_features=640, out_features=32, bias=True)
    (6): ReLU()
  )
  (output): Sequential(
    (0): Linear(in_features=32, out_features=2, bias=True)
  )
)
2023-07-31 17:07:49,646	root	INFO	Using cuda:0 device
2023-07-31 17:07:49,697	root	INFO	Start training with CNNLSTM model
2023-07-31 17:07:49,697	root	INFO	CNNLSTM(
  (conv1): Conv1d(32, 32, kernel_size=(3,), stride=(1,))
  (conv2): Conv1d(32, 32, kernel_size=(3,), stride=(1,))
  (pool): MaxPool1d(kernel_size=2, stride=2, padding=0, dilation=1, ceil_mode=False)
  (conv3): Conv1d(32, 16, kernel_size=(3,), stride=(1,))
  (conv4): Conv1d(16, 16, kernel_size=(3,), stride=(1,))
  (lstm1): LSTM(16, 8, batch_first=True)
  (attention): Attention(
    (attention_weights): Linear(in_features=8, out_features=1, bias=True)
    (softmax): Softmax(dim=1)
  )
  (fc1): Linear(in_features=8, out_features=4, bias=True)
  (fc2): Linear(in_features=4, out_features=2, bias=True)
  (global_pooling): AdaptiveMaxPool1d(output_size=1)
  (softmax): Softmax(dim=1)
  (dropout): Dropout(p=0.5, inplace=False)
)
2023-07-31 17:08:18,687	root	INFO	Using cuda:0 device
2023-07-31 17:08:18,687	root	INFO	Start training with CNNLSTM model
2023-07-31 17:08:18,687	root	INFO	CNNLSTM(
  (conv1): Conv1d(32, 32, kernel_size=(3,), stride=(1,))
  (conv2): Conv1d(32, 32, kernel_size=(3,), stride=(1,))
  (pool): MaxPool1d(kernel_size=2, stride=2, padding=0, dilation=1, ceil_mode=False)
  (conv3): Conv1d(32, 16, kernel_size=(3,), stride=(1,))
  (conv4): Conv1d(16, 16, kernel_size=(3,), stride=(1,))
  (lstm1): LSTM(16, 8, batch_first=True)
  (attention): Attention(
    (attention_weights): Linear(in_features=8, out_features=1, bias=True)
    (softmax): Softmax(dim=1)
  )
  (fc1): Linear(in_features=8, out_features=4, bias=True)
  (fc2): Linear(in_features=4, out_features=2, bias=True)
  (global_pooling): AdaptiveMaxPool1d(output_size=1)
  (softmax): Softmax(dim=1)
  (dropout): Dropout(p=0.5, inplace=False)
)
2023-07-31 17:22:13,666	root	INFO	Using cuda:0 device
2023-07-31 17:22:13,683	root	INFO	Start training with CNNLSTM model
2023-07-31 17:22:13,683	root	INFO	CNNLSTM(
  (conv1): Conv1d(32, 32, kernel_size=(3,), stride=(1,))
  (conv2): Conv1d(32, 32, kernel_size=(3,), stride=(1,))
  (pool): MaxPool1d(kernel_size=2, stride=2, padding=0, dilation=1, ceil_mode=False)
  (conv3): Conv1d(32, 16, kernel_size=(3,), stride=(1,))
  (conv4): Conv1d(16, 16, kernel_size=(3,), stride=(1,))
  (lstm1): LSTM(16, 8, batch_first=True)
  (lstm2): LSTM(8, 8, batch_first=True)
  (attention): Attention(
    (attention_weights): Linear(in_features=8, out_features=1, bias=True)
    (softmax): Softmax(dim=1)
  )
  (fc1): Linear(in_features=8, out_features=4, bias=True)
  (fc2): Linear(in_features=4, out_features=2, bias=True)
  (global_pooling): AdaptiveMaxPool1d(output_size=1)
  (softmax): Softmax(dim=1)
  (dropout): Dropout(p=0.5, inplace=False)
)
2023-07-31 17:30:44,166	root	INFO	Using cuda:0 device
2023-07-31 17:30:44,193	root	INFO	Start training with CNNLSTM model
2023-07-31 17:30:44,193	root	INFO	CNNLSTM(
  (conv1): Conv1d(32, 32, kernel_size=(3,), stride=(1,))
  (conv2): Conv1d(32, 32, kernel_size=(3,), stride=(1,))
  (pool): MaxPool1d(kernel_size=2, stride=2, padding=0, dilation=1, ceil_mode=False)
  (conv3): Conv1d(32, 16, kernel_size=(3,), stride=(1,))
  (conv4): Conv1d(16, 16, kernel_size=(3,), stride=(1,))
  (lstm1): LSTM(16, 8, batch_first=True)
  (lstm2): LSTM(8, 8, batch_first=True)
  (attention): Attention(
    (attention_weights): Linear(in_features=8, out_features=1, bias=True)
    (softmax): Softmax(dim=1)
  )
  (fc1): Linear(in_features=8, out_features=4, bias=True)
  (fc2): Linear(in_features=4, out_features=2, bias=True)
  (global_pooling): AdaptiveMaxPool1d(output_size=1)
  (softmax): Softmax(dim=1)
  (dropout): Dropout(p=0.5, inplace=False)
)
2023-07-31 17:32:25,373	root	INFO	Using cuda:0 device
2023-07-31 17:32:25,374	root	INFO	Start training with CNNLSTM model
2023-07-31 17:32:25,374	root	INFO	CNNLSTM(
  (conv1): Conv1d(32, 32, kernel_size=(3,), stride=(1,))
  (conv2): Conv1d(32, 32, kernel_size=(3,), stride=(1,))
  (pool): MaxPool1d(kernel_size=2, stride=2, padding=0, dilation=1, ceil_mode=False)
  (conv3): Conv1d(32, 16, kernel_size=(3,), stride=(1,))
  (conv4): Conv1d(16, 16, kernel_size=(3,), stride=(1,))
  (lstm1): LSTM(16, 8, batch_first=True)
  (attention): Attention(
    (attention_weights): Linear(in_features=8, out_features=1, bias=True)
    (softmax): Softmax(dim=1)
  )
  (fc1): Linear(in_features=8, out_features=4, bias=True)
  (fc2): Linear(in_features=4, out_features=2, bias=True)
  (global_pooling): AdaptiveMaxPool1d(output_size=1)
  (softmax): Softmax(dim=1)
  (dropout): Dropout(p=0.5, inplace=False)
)
2023-07-31 17:52:23,058	root	INFO	Using cuda:0 device
2023-07-31 17:52:23,081	root	INFO	Start training with CNNLSTM model
2023-07-31 17:52:23,082	root	INFO	CNNLSTM(
  (conv1): Conv1d(32, 32, kernel_size=(3,), stride=(1,))
  (conv2): Conv1d(32, 32, kernel_size=(3,), stride=(1,))
  (pool): MaxPool1d(kernel_size=2, stride=2, padding=0, dilation=1, ceil_mode=False)
  (conv3): Conv1d(32, 16, kernel_size=(3,), stride=(1,))
  (conv4): Conv1d(16, 16, kernel_size=(3,), stride=(1,))
  (lstm1): LSTM(16, 8, batch_first=True)
  (attention): Attention(
    (attention_weights): Linear(in_features=8, out_features=1, bias=True)
    (softmax): Softmax(dim=1)
  )
  (fc1): Linear(in_features=8, out_features=4, bias=True)
  (fc2): Linear(in_features=4, out_features=2, bias=True)
  (global_pooling): AdaptiveMaxPool1d(output_size=1)
  (softmax): Softmax(dim=1)
  (dropout): Dropout(p=0.5, inplace=False)
)
2023-07-31 17:52:23,833	root	INFO	====> Epoch: 1
2023-07-31 17:52:24,205	root	INFO	loss: 0.692344  accuracy: 52.000000 [   50/206242]
2023-07-31 17:52:26,458	root	INFO	loss: 0.694197  accuracy: 48.915423 [10050/206242]
2023-07-31 17:52:28,219	root	INFO	loss: 0.687010  accuracy: 52.413965 [20050/206242]
…
2023-07-31 18:18:16,028	root	INFO	loss: 0.050505  accuracy: 98.014539 [110050/206242]
2023-07-31 18:18:18,249	root	INFO	loss: 0.050658  accuracy: 98.017493 [120050/206242]
2023-07-31 18:18:20,318	root	INFO	loss: 0.051114  accuracy: 97.998462 [130050/206242]
2023-07-31 18:18:22,384	root	INFO	loss: 0.051429  accuracy: 97.981435 [140050/206242]
2023-07-31 18:18:24,426	root	INFO	loss: 0.051261  accuracy: 97.984672 [150050/206242]
2023-08-01 11:59:28,053	root	INFO	Using cuda:0 device
2023-08-01 11:59:28,077	root	INFO	Start training with LCNN model
2023-08-01 11:59:28,078	root	INFO	LCNN(
  (conv1): Sequential(
    (0): Conv2d(1, 32, kernel_size=(3, 3), stride=(1, 1))
    (1): ReLU()
    (2): MaxPool2d(kernel_size=2, stride=2, padding=0, dilation=1, ceil_mode=False)
  )
  (conv2): Sequential(
    (0): Conv2d(32, 16, kernel_size=(3, 3), stride=(1, 1))
    (1): ReLU()
    (2): MaxPool2d(kernel_size=2, stride=2, padding=0, dilation=1, ceil_mode=False)
  )
  (conv3): Sequential(
    (0): Conv2d(16, 8, kernel_size=(3, 3), stride=(1, 1))
    (1): ReLU()
    (2): MaxPool2d(kernel_size=2, stride=2, padding=0, dilation=1, ceil_mode=False)
    (3): Dropout(p=0.25, inplace=False)
    (4): Flatten(start_dim=1, end_dim=-1)
  )
  (lin): Sequential(
    (0): Linear(in_features=560, out_features=8, bias=True)
    (1): ReLU()
  )
  (output): Sequential(
    (0): Linear(in_features=8, out_features=2, bias=True)
  )
)
2023-08-01 12:01:54,478	root	INFO	Using cuda:0 device
2023-08-01 12:01:54,504	root	INFO	Start training with LCNN model
2023-08-01 12:01:54,504	root	INFO	LCNN(
  (conv1): Sequential(
    (0): Conv2d(1, 32, kernel_size=(3, 3), stride=(1, 1))
    (1): ReLU()
    (2): MaxPool2d(kernel_size=2, stride=2, padding=0, dilation=1, ceil_mode=False)
  )
  (conv2): Sequential(
    (0): Conv2d(32, 16, kernel_size=(3, 3), stride=(1, 1))
    (1): ReLU()
    (2): MaxPool2d(kernel_size=2, stride=2, padding=0, dilation=1, ceil_mode=False)
  )
  (conv3): Sequential(
    (0): Conv2d(16, 8, kernel_size=(3, 3), stride=(1, 1))
    (1): ReLU()
    (2): MaxPool2d(kernel_size=2, stride=2, padding=0, dilation=1, ceil_mode=False)
    (3): Dropout(p=0.25, inplace=False)
    (4): Flatten(start_dim=1, end_dim=-1)
  )
  (lin): Sequential(
    (0): Linear(in_features=560, out_features=8, bias=True)
    (1): ReLU()
  )
  (output): Sequential(
    (0): Linear(in_features=8, out_features=2, bias=True)
  )
)
2023-08-01 12:02:44,974	root	INFO	Using cuda:0 device
2023-08-01 12:02:44,974	root	INFO	Start training with LCNN model
2023-08-01 12:02:44,974	root	INFO	LCNN(
  (conv1): Sequential(
    (0): Conv2d(1, 32, kernel_size=(3, 3), stride=(1, 1))
    (1): ReLU()
    (2): MaxPool2d(kernel_size=2, stride=2, padding=0, dilation=1, ceil_mode=False)
  )
  (conv2): Sequential(
    (0): Conv2d(32, 16, kernel_size=(3, 3), stride=(1, 1))
    (1): ReLU()
    (2): MaxPool2d(kernel_size=2, stride=2, padding=0, dilation=1, ceil_mode=False)
  )
  (conv3): Sequential(
    (0): Conv2d(16, 8, kernel_size=(3, 3), stride=(1, 1))
    (1): ReLU()
    (2): MaxPool2d(kernel_size=2, stride=2, padding=0, dilation=1, ceil_mode=False)
    (3): Dropout(p=0.25, inplace=False)
    (4): Flatten(start_dim=1, end_dim=-1)
  )
  (lin): Sequential(
    (0): Linear(in_features=560, out_features=8, bias=True)
    (1): ReLU()
  )
  (output): Sequential(
    (0): Linear(in_features=8, out_features=2, bias=True)
  )
)
2023-08-01 12:12:33,874	root	INFO	Using cuda:0 device
2023-08-01 12:12:33,900	root	INFO	Start training with LCNN model
2023-08-01 12:12:33,900	root	INFO	LCNN(
  (conv1): Sequential(
    (0): Conv2d(1, 32, kernel_size=(3, 3), stride=(1, 1))
    (1): ReLU()
    (2): MaxPool2d(kernel_size=2, stride=2, padding=0, dilation=1, ceil_mode=False)
  )
  (conv2): Sequential(
    (0): Conv2d(32, 16, kernel_size=(3, 3), stride=(1, 1))
    (1): ReLU()
    (2): MaxPool2d(kernel_size=2, stride=2, padding=0, dilation=1, ceil_mode=False)
  )
  (conv3): Sequential(
    (0): Conv2d(16, 8, kernel_size=(3, 3), stride=(1, 1))
    (1): ReLU()
    (2): MaxPool2d(kernel_size=2, stride=2, padding=0, dilation=1, ceil_mode=False)
    (3): Dropout(p=0.25, inplace=False)
    (4): Flatten(start_dim=1, end_dim=-1)
  )
  (lin): Sequential(
    (0): Linear(in_features=560, out_features=8, bias=True)
    (1): ReLU()
  )
  (output): Sequential(
    (0): Linear(in_features=8, out_features=2, bias=True)
  )
)
2023-08-01 13:59:47,080	root	INFO	Using cuda:0 device
2023-08-01 13:59:47,111	root	INFO	Start training with LCNN model
2023-08-01 13:59:47,111	root	INFO	LCNN(
  (conv1): Sequential(
    (0): Conv2d(1, 32, kernel_size=(3, 3), stride=(1, 1))
    (1): ReLU()
    (2): MaxPool2d(kernel_size=2, stride=2, padding=0, dilation=1, ceil_mode=False)
  )
  (conv2): Sequential(
    (0): Conv2d(32, 16, kernel_size=(3, 3), stride=(1, 1))
    (1): ReLU()
    (2): MaxPool2d(kernel_size=2, stride=2, padding=0, dilation=1, ceil_mode=False)
  )
  (conv3): Sequential(
    (0): Conv2d(16, 8, kernel_size=(3, 3), stride=(1, 1))
    (1): ReLU()
    (2): MaxPool2d(kernel_size=2, stride=2, padding=0, dilation=1, ceil_mode=False)
    (3): Dropout(p=0.25, inplace=False)
    (4): Flatten(start_dim=1, end_dim=-1)
  )
  (lin): Sequential(
    (0): Linear(in_features=560, out_features=8, bias=True)
    (1): ReLU()
  )
  (output): Sequential(
    (0): Linear(in_features=8, out_features=2, bias=True)
  )
)
2023-08-01 14:07:23,662	root	INFO	Using cuda:0 device
2023-08-01 14:07:23,698	root	INFO	Start training with LCNN model
2023-08-01 14:07:23,698	root	INFO	LCNN(
  (conv1): Sequential(
    (0): Conv2d(1, 32, kernel_size=(3, 3), stride=(1, 1))
    (1): ReLU()
    (2): MaxPool2d(kernel_size=2, stride=2, padding=0, dilation=1, ceil_mode=False)
  )
  (conv2): Sequential(
    (0): Conv2d(32, 16, kernel_size=(3, 3), stride=(1, 1))
    (1): ReLU()
    (2): MaxPool2d(kernel_size=2, stride=2, padding=0, dilation=1, ceil_mode=False)
  )
  (conv3): Sequential(
    (0): Conv2d(16, 8, kernel_size=(3, 3), stride=(1, 1))
    (1): ReLU()
    (2): MaxPool2d(kernel_size=2, stride=2, padding=0, dilation=1, ceil_mode=False)
    (3): Dropout(p=0.25, inplace=False)
    (4): Flatten(start_dim=1, end_dim=-1)
  )
  (lin): Sequential(
    (0): Linear(in_features=560, out_features=8, bias=True)
    (1): ReLU()
  )
  (output): Sequential(
    (0): Linear(in_features=8, out_features=2, bias=True)
  )
)
2023-08-01 14:07:23,699	root	INFO	====> Epoch: 1
2023-08-01 14:07:57,827	root	INFO	loss: 0.776495  accuracy: 28.000000 [   50/ 8400]
2023-08-01 14:08:00,233	root	INFO	Train  Loss: 0.650977 accuracy: 55.976190% 
2023-08-01 14:08:00,642	root	INFO	Val loss: 0.555391 Val accuracy: 77.664083%
2023-08-01 14:13:36,576	root	INFO	Using cuda:0 device
2023-08-01 14:13:36,613	root	INFO	Start training with LCNN model
2023-08-01 14:13:36,613	root	INFO	LCNN(
  (conv1): Sequential(
    (0): Conv2d(1, 32, kernel_size=(3, 3), stride=(1, 1))
    (1): ReLU()
    (2): MaxPool2d(kernel_size=2, stride=2, padding=0, dilation=1, ceil_mode=False)
  )
  (conv2): Sequential(
    (0): Conv2d(32, 16, kernel_size=(3, 3), stride=(1, 1))
    (1): ReLU()
    (2): MaxPool2d(kernel_size=2, stride=2, padding=0, dilation=1, ceil_mode=False)
  )
  (conv3): Sequential(
    (0): Conv2d(16, 8, kernel_size=(3, 3), stride=(1, 1))
    (1): ReLU()
    (2): MaxPool2d(kernel_size=2, stride=2, padding=0, dilation=1, ceil_mode=False)
    (3): Dropout(p=0.25, inplace=False)
    (4): Flatten(start_dim=1, end_dim=-1)
  )
  (lin): Sequential(
    (0): Linear(in_features=560, out_features=8, bias=True)
    (1): ReLU()
  )
  (output): Sequential(
    (0): Linear(in_features=8, out_features=2, bias=True)
  )
)
2023-08-01 14:18:46,577	root	INFO	Using cuda:0 device
2023-08-01 14:18:46,608	root	INFO	Start training with LCNN model
2023-08-01 14:18:46,608	root	INFO	LCNN(
  (conv1): Sequential(
    (0): Conv2d(1, 32, kernel_size=(3, 3), stride=(1, 1))
    (1): ReLU()
    (2): MaxPool2d(kernel_size=2, stride=2, padding=0, dilation=1, ceil_mode=False)
  )
  (conv2): Sequential(
    (0): Conv2d(32, 16, kernel_size=(3, 3), stride=(1, 1))
    (1): ReLU()
    (2): MaxPool2d(kernel_size=2, stride=2, padding=0, dilation=1, ceil_mode=False)
  )
  (conv3): Sequential(
    (0): Conv2d(16, 8, kernel_size=(3, 3), stride=(1, 1))
    (1): ReLU()
    (2): MaxPool2d(kernel_size=2, stride=2, padding=0, dilation=1, ceil_mode=False)
    (3): Dropout(p=0.25, inplace=False)
    (4): Flatten(start_dim=1, end_dim=-1)
  )
  (lin): Sequential(
    (0): Linear(in_features=560, out_features=8, bias=True)
    (1): ReLU()
  )
  (output): Sequential(
    (0): Linear(in_features=8, out_features=2, bias=True)
  )
)
2023-08-01 14:18:47,132	root	INFO	====> Epoch: 1
2023-08-01 14:18:47,484	root	INFO	loss: 0.624238  accuracy: 78.000000 [   50/10129]
2023-08-01 14:18:50,441	root	INFO	loss: 0.486738  accuracy: 79.393035 [10050/10129]
2023-08-01 14:18:50,479	root	INFO	Train  Loss: 0.484727 accuracy: 79.452013% 
2023-08-01 14:18:50,647	root	INFO	Val loss: 0.300115 Val accuracy: 82.566038%
…
2023-08-01 14:19:02,970	root	INFO	loss: 0.013560  accuracy: 100.000000 [   50/10129]
2023-08-01 14:19:05,826	root	INFO	loss: 0.063341  accuracy: 97.910448 [10050/10129]
2023-08-01 14:19:05,851	root	INFO	Train  Loss: 0.063099 accuracy: 97.921182% 
2023-08-01 14:19:06,011	root	INFO	Val loss: 0.039046 Val accuracy: 98.981132%
2023-08-01 14:19:06,011	root	INFO	====> Epoch: 7
2023-08-01 14:19:06,027	root	INFO	loss: 0.047739  accuracy: 98.000000 [   50/10129]
2023-08-01 14:30:41,938	root	INFO	Using cuda:0 device
2023-08-01 14:30:41,971	root	INFO	Start training with LCNN model
2023-08-01 14:30:41,971	root	INFO	LCNN(
  (conv1): Sequential(
    (0): Conv2d(1, 32, kernel_size=(3, 3), stride=(1, 1))
    (1): ReLU()
    (2): MaxPool2d(kernel_size=2, stride=2, padding=0, dilation=1, ceil_mode=False)
  )
  (conv2): Sequential(
    (0): Conv2d(32, 16, kernel_size=(3, 3), stride=(1, 1))
    (1): ReLU()
    (2): MaxPool2d(kernel_size=2, stride=2, padding=0, dilation=1, ceil_mode=False)
  )
  (conv3): Sequential(
    (0): Conv2d(16, 8, kernel_size=(3, 3), stride=(1, 1))
    (1): ReLU()
    (2): MaxPool2d(kernel_size=2, stride=2, padding=0, dilation=1, ceil_mode=False)
    (3): Dropout(p=0.25, inplace=False)
    (4): Flatten(start_dim=1, end_dim=-1)
  )
  (lin): Sequential(
    (0): Linear(in_features=560, out_features=8, bias=True)
    (1): ReLU()
  )
  (output): Sequential(
    (0): Linear(in_features=8, out_features=2, bias=True)
  )
)
2023-08-01 14:30:42,636	root	INFO	====> Epoch: 1
2023-08-01 14:30:43,261	root	INFO	loss: 0.669736  accuracy: 64.000000 [   50/161242]
2023-08-01 14:30:46,172	root	INFO	loss: 0.665648  accuracy: 59.731343 [10050/161242]
2023-08-01 14:30:49,040	root	INFO	loss: 0.601389  accuracy: 67.501247 [20050/161242]
2023-08-01 14:30:51,870	root	INFO	loss: 0.567251  accuracy: 70.189684 [30050/161242]
…
2023-08-01 17:37:48,799	root	INFO	loss: 0.078332  accuracy: 96.802887 [90050/140842]
2023-08-01 17:37:51,800	root	INFO	loss: 0.078178  accuracy: 96.802599 [100050/140842]
2023-08-01 17:37:54,807	root	INFO	loss: 0.077701  accuracy: 96.828714 [110050/140842]
2023-08-01 17:37:57,816	root	INFO	loss: 0.077146  accuracy: 96.852145 [120050/140842]
2023-08-01 17:38:00,811	root	INFO	loss: 0.077459  accuracy: 96.849673 [130050/140842]
2023-08-03 15:07:47,450	root	INFO	Using cuda:0 device
2023-08-03 15:07:47,473	root	INFO	Start training with LCNN model
2023-08-03 15:07:47,473	root	INFO	LCNN(
  (conv1): Sequential(
    (0): Conv2d(1, 32, kernel_size=(3, 3), stride=(1, 1))
    (1): ReLU()
    (2): MaxPool2d(kernel_size=2, stride=2, padding=0, dilation=1, ceil_mode=False)
  )
  (conv2): Sequential(
    (0): Conv2d(32, 16, kernel_size=(3, 3), stride=(1, 1))
    (1): ReLU()
    (2): MaxPool2d(kernel_size=2, stride=2, padding=0, dilation=1, ceil_mode=False)
  )
  (conv3): Sequential(
    (0): Conv2d(16, 8, kernel_size=(3, 3), stride=(1, 1))
    (1): ReLU()
    (2): MaxPool2d(kernel_size=2, stride=2, padding=0, dilation=1, ceil_mode=False)
    (3): Dropout(p=0.25, inplace=False)
    (4): Flatten(start_dim=1, end_dim=-1)
    (5): Linear(in_features=560, out_features=8, bias=True)
    (6): ReLU()
  )
  (output): Sequential(
    (0): Linear(in_features=8, out_features=2, bias=True)
  )
)
2023-08-03 15:08:19,674	root	INFO	Using cuda:0 device
2023-08-03 15:08:19,674	root	INFO	Start training with LCNN model
2023-08-03 15:08:19,674	root	INFO	LCNN(
  (conv1): Sequential(
    (0): Conv2d(1, 32, kernel_size=(3, 3), stride=(1, 1))
    (1): ReLU()
    (2): MaxPool2d(kernel_size=2, stride=2, padding=0, dilation=1, ceil_mode=False)
  )
  (conv2): Sequential(
    (0): Conv2d(32, 16, kernel_size=(3, 3), stride=(1, 1))
    (1): ReLU()
    (2): MaxPool2d(kernel_size=2, stride=2, padding=0, dilation=1, ceil_mode=False)
  )
  (conv3): Sequential(
    (0): Conv2d(16, 8, kernel_size=(3, 3), stride=(1, 1))
    (1): ReLU()
    (2): MaxPool2d(kernel_size=2, stride=2, padding=0, dilation=1, ceil_mode=False)
    (3): Dropout(p=0.25, inplace=False)
    (4): Flatten(start_dim=1, end_dim=-1)
    (5): Linear(in_features=560, out_features=8, bias=True)
    (6): ReLU()
  )
  (output): Sequential(
    (0): Linear(in_features=8, out_features=2, bias=True)
  )
)
2023-08-03 15:15:41,259	root	INFO	Using cuda:0 device
2023-08-03 15:15:41,300	root	INFO	Start training with LCNN model
2023-08-03 15:15:41,300	root	INFO	LCNN(
  (conv1): Sequential(
    (0): Conv2d(1, 32, kernel_size=(3, 3), stride=(1, 1))
    (1): ReLU()
    (2): MaxPool2d(kernel_size=2, stride=2, padding=0, dilation=1, ceil_mode=False)
  )
  (conv2): Sequential(
    (0): Conv2d(32, 16, kernel_size=(3, 3), stride=(1, 1))
    (1): ReLU()
    (2): MaxPool2d(kernel_size=2, stride=2, padding=0, dilation=1, ceil_mode=False)
  )
  (conv3): Sequential(
    (0): Conv2d(16, 8, kernel_size=(3, 3), stride=(1, 1))
    (1): ReLU()
    (2): MaxPool2d(kernel_size=2, stride=2, padding=0, dilation=1, ceil_mode=False)
    (3): Dropout(p=0.25, inplace=False)
    (4): Flatten(start_dim=1, end_dim=-1)
    (5): Linear(in_features=560, out_features=8, bias=True)
    (6): ReLU()
  )
  (output): Sequential(
    (0): Linear(in_features=8, out_features=2, bias=True)
  )
)
2023-08-03 15:15:41,301	root	INFO	====> Epoch: 1
2023-08-03 15:32:42,081	root	INFO	Using cuda:0 device
2023-08-03 15:32:42,122	root	INFO	Start training with LCNN model
2023-08-03 15:32:42,122	root	INFO	LCNN(
  (conv1): Sequential(
    (0): Conv2d(1, 32, kernel_size=(3, 3), stride=(1, 1))
    (1): ReLU()
    (2): MaxPool2d(kernel_size=2, stride=2, padding=0, dilation=1, ceil_mode=False)
  )
  (conv2): Sequential(
    (0): Conv2d(32, 16, kernel_size=(3, 3), stride=(1, 1))
    (1): ReLU()
    (2): MaxPool2d(kernel_size=2, stride=2, padding=0, dilation=1, ceil_mode=False)
  )
  (conv3): Sequential(
    (0): Conv2d(16, 8, kernel_size=(3, 3), stride=(1, 1))
    (1): ReLU()
    (2): MaxPool2d(kernel_size=2, stride=2, padding=0, dilation=1, ceil_mode=False)
    (3): Dropout(p=0.25, inplace=False)
    (4): Flatten(start_dim=1, end_dim=-1)
    (5): Linear(in_features=560, out_features=8, bias=True)
    (6): ReLU()
  )
  (output): Sequential(
    (0): Linear(in_features=8, out_features=2, bias=True)
  )
)
2023-08-03 15:32:42,123	root	INFO	====> Epoch: 1
2023-08-03 15:38:31,782	root	INFO	Using cuda:0 device
2023-08-03 15:38:31,824	root	INFO	Start training with LCNN model
2023-08-03 15:38:31,824	root	INFO	LCNN(
  (conv1): Sequential(
    (0): Conv2d(1, 32, kernel_size=(3, 3), stride=(1, 1))
    (1): ReLU()
    (2): MaxPool2d(kernel_size=2, stride=2, padding=0, dilation=1, ceil_mode=False)
  )
  (conv2): Sequential(
    (0): Conv2d(32, 16, kernel_size=(3, 3), stride=(1, 1))
    (1): ReLU()
    (2): MaxPool2d(kernel_size=2, stride=2, padding=0, dilation=1, ceil_mode=False)
  )
  (conv3): Sequential(
    (0): Conv2d(16, 8, kernel_size=(3, 3), stride=(1, 1))
    (1): ReLU()
    (2): MaxPool2d(kernel_size=2, stride=2, padding=0, dilation=1, ceil_mode=False)
    (3): Dropout(p=0.25, inplace=False)
    (4): Flatten(start_dim=1, end_dim=-1)
    (5): Linear(in_features=560, out_features=8, bias=True)
    (6): ReLU()
  )
  (output): Sequential(
    (0): Linear(in_features=8, out_features=2, bias=True)
  )
)
2023-08-03 15:38:31,825	root	INFO	====> Epoch: 1
2023-08-03 15:43:26,525	root	INFO	Using cuda:0 device
2023-08-03 15:43:26,566	root	INFO	Start training with LCNN model
2023-08-03 15:43:26,567	root	INFO	LCNN(
  (conv1): Sequential(
    (0): Conv2d(1, 32, kernel_size=(3, 3), stride=(1, 1))
    (1): ReLU()
    (2): MaxPool2d(kernel_size=2, stride=2, padding=0, dilation=1, ceil_mode=False)
  )
  (conv2): Sequential(
    (0): Conv2d(32, 16, kernel_size=(3, 3), stride=(1, 1))
    (1): ReLU()
    (2): MaxPool2d(kernel_size=2, stride=2, padding=0, dilation=1, ceil_mode=False)
  )
  (conv3): Sequential(
    (0): Conv2d(16, 8, kernel_size=(3, 3), stride=(1, 1))
    (1): ReLU()
    (2): MaxPool2d(kernel_size=2, stride=2, padding=0, dilation=1, ceil_mode=False)
    (3): Dropout(p=0.25, inplace=False)
    (4): Flatten(start_dim=1, end_dim=-1)
    (5): Linear(in_features=560, out_features=8, bias=True)
    (6): ReLU()
  )
  (output): Sequential(
    (0): Linear(in_features=8, out_features=2, bias=True)
  )
)
2023-08-03 15:43:26,568	root	INFO	====> Epoch: 1
2023-08-03 16:03:41,868	root	INFO	Using cuda:0 device
2023-08-03 16:03:41,897	root	INFO	Start training with LCNN model
2023-08-03 16:03:41,898	root	INFO	LCNN(
  (conv1): Sequential(
    (0): Conv2d(1, 32, kernel_size=(3, 3), stride=(1, 1))
    (1): ReLU()
    (2): MaxPool2d(kernel_size=2, stride=2, padding=0, dilation=1, ceil_mode=False)
  )
  (conv2): Sequential(
    (0): Conv2d(32, 16, kernel_size=(3, 3), stride=(1, 1))
    (1): ReLU()
    (2): MaxPool2d(kernel_size=2, stride=2, padding=0, dilation=1, ceil_mode=False)
  )
  (conv3): Sequential(
    (0): Conv2d(16, 8, kernel_size=(3, 3), stride=(1, 1))
    (1): ReLU()
    (2): MaxPool2d(kernel_size=2, stride=2, padding=0, dilation=1, ceil_mode=False)
    (3): Dropout(p=0.25, inplace=False)
    (4): Flatten(start_dim=1, end_dim=-1)
    (5): Linear(in_features=560, out_features=8, bias=True)
    (6): ReLU()
  )
  (output): Sequential(
    (0): Linear(in_features=8, out_features=2, bias=True)
  )
)
2023-08-03 16:03:41,898	root	INFO	====> Epoch: 1
2023-08-03 16:03:53,649	root	INFO	loss: 0.631143  accuracy: 100.000000
2023-08-03 16:04:08,028	root	INFO	loss: 0.683343  accuracy: 53.666667
2023-08-03 16:04:28,497	root	INFO	loss: 0.617107  accuracy: 63.807980
2023-08-03 16:04:51,827	root	INFO	loss: 0.617136  accuracy: 63.395769
2023-08-03 16:05:28,672	root	INFO	loss: 0.619860  accuracy: 64.923667
…
